chatbot_model.pt (torch, 6791 bytes, 6 tensors)

fc1.weight f4 [8, 108]
0	0x3e0c4d08	0.1370126
1	0x3b932ece	0.0044916635
2	0x3d54d59a	0.05196152
3	0xbdd5600f	-0.10418712
4	0x3d46384f	0.048393544
5	0x3ec5d315	0.38637605
6	0x3db3e27e	0.08783434
7	0x3e18b1d2	0.14911583
8	0x3e9e5bc2	0.3092938
9	0x3e82ef6e	0.25573295
10	0x3cebea4c	0.028798245
11	0x3e1f13ad	0.1553485
12	0x3e391ee8	0.18078196
13	0x3d946407	0.07245641
14	0x3c276d31	0.010218904
15	0x3eea6321	0.45778754
16	0x3d1d77d4	0.038444355
17	0x3d04a6f4	0.03238578
18	0x3ec5b7f1	0.386169
19	0x3e3c6e88	0.1840154
20	0x3d890b87	0.06691652
21	0xbebe24bf	-0.3713741
22	0xbe0e76d0	-0.13912511
23	0xbd9e31e0	-0.07724357
24	0x3ea09df2	0.31370503
25	0xbdca65c0	-0.098826885
26	0x3d70578d	0.058677245
27	0x3dada7df	0.084792845
28	0x3d79edf4	0.061017945
29	0x3e63ef50	0.22259259
30	0x3e271e8d	0.16320248
31	0xbd08d01c	-0.033401594
32	0x3e2e9ea5	0.17052706
33	0x3dcb4ca7	0.0992673
34	0x3ee1e2f7	0.44118473
35	0x3e2ff629	0.17183746
36	0xbc1c2025	-0.009529148
37	0x3d103a49	0.035211835
38	0x3ec091a7	0.37611124
39	0xbe0e8e7a	-0.13921538
40	0x3e660d19	0.22465934
41	0x3e64f1e7	0.22357903
42	0xbebe52f9	-0.37172678
43	0xbe0085a5	-0.12550981
44	0x3e5faf59	0.21844234
45	0x3e5cd3e8	0.21565211
46	0x3e83a408	0.25711083
47	0x3e9c5413	0.30532894
48	0xbe9a046e	-0.30081505
49	0xbe253531	-0.16133572
50	0xbdb7f8f8	-0.08983034
51	0x3e6d430a	0.23170105
52	0x3e8c2b1f	0.2737665
53	0x3ea8a83f	0.32940862
54	0x3e3d98dc	0.18515342
55	0x3db785af	0.08961045
56	0x3e1b7628	0.15181792
57	0x3edf222c	0.4358076
58	0x3e5b7283	0.21430402
59	0x3e9a270e	0.3010792
60	0x3e56a873	0.20962696
61	0xbe437959	-0.19089259
62	0x3d8dcbbe	0.06923626
63	0xbe05e91a	-0.13077202
64	0x3d85069e	0.06495403
65	0x3ea3b1d9	0.31971624
66	0x3ea8e241	0.32985118
67	0x3e26fd69	0.16307606
68	0x3ed440e2	0.41455752
69	0xbe05a9e2	-0.13053086
70	0xbd656414	-0.056003645
71	0xbd7f12b3	-0.062273692
72	0x3edfe4c6	0.43729228
73	0x3da3cc24	0.07997921
74	0x3e52e012	0.20593289
75	0xbba6f8a5	-0.0050955587
76	0x3e3557f6	0.17709336
77	0x3eb0609f	0.34448716
78	0x3d93926a	0.07205661
79	0x3bf1e6ed	0.007382265
80	0x3e148ef3	0.14507656
81	0x3df06671	0.11738289
82	0xbe7edeef	-0.2488973
83	0x3e980666	0.29692382
84	0x3d8b6252	0.068058625
85	0x3e9a6caf	0.30161044
86	0x3df79067	0.120880894
87	0x3f0d39a4	0.5516608
88	0xbe938e45	-0.2881948
89	0x3f03ca14	0.5148022
90	0xbecbb4c7	-0.3978636
91	0xbeb260bb	-0.34839424
92	0xbe5b4922	-0.21414617
93	0x3de52427	0.11188536
94	0x3e98fdf4	0.2988125
95	0x3e0b3e5f	0.13598011
96	0xbd93f3d0	-0.07224238
97	0xbe7e4d0b	-0.24834077
98	0x3e3e33e9	0.1857449
99	0x3ece01d1	0.4023576
100	0x3ea3e830	0.32013083
101	0x3e9a67fd	0.30157462
102	0x3eb043b9	0.34426668
103	0x3edbc5b3	0.4292427
104	0x3d9994a3	0.07499053
105	0xbc9226be	-0.01784074
106	0x3d88e35d	0.06683991
107	0x3e605f32	0.21911314
108	0xbd7c45ac	-0.06158988
109	0x3e9e0bdc	0.30868423
110	0x3d23ac43	0.039959203
111	0x3e7c0c5e	0.24614093
112	0xbdf33ad8	-0.11876458
113	0x3eb0ec93	0.34555492
114	0xbe78ed03	-0.24309163
115	0xbe59eb50	-0.21281171
116	0xbd8b7781	-0.06809903
117	0xbe72b7be	-0.23702905
118	0xbceb7628	-0.028742865
119	0x3d7d6ca4	0.061871186
120	0xbcb4c8ad	-0.022068346
121	0x3df4849d	0.119393565
122	0x3d31503e	0.043289416
123	0x3e52a8e6	0.20572242
124	0xbd881eac	-0.06646475
125	0x3e84cf8c	0.25939596
126	0x3eb1bcdc	0.347144
127	0xbdaecd02	-0.08535196
128	0xbd85c61e	-0.065319285
129	0x3ecbc999	0.39802244
130	0xbe65b944	-0.22433954
131	0x3e88e73f	0.26738927
132	0xbea51b2e	-0.322473
133	0xbe4cc7f6	-0.19998154
134	0xbceb75a6	-0.028742623
135	0xbdad8beb	-0.08473953
136	0x3d075b5e	0.03304612
137	0x3df9222b	0.1216472
138	0xbd402b2d	-0.046916176
139	0xbdeff401	-0.11716462
140	0xbd430103	-0.047608387
141	0x3d41b9ea	0.047296442
142	0xbec7578f	-0.3893399
143	0xbb80a97f	-0.0039264555
144	0x3deff9ab	0.11717542
145	0x3ab5562d	0.0013834886
146	0x3eebe7de	0.46075338
147	0x3df7cb27	0.12099295
148	0x3e80766d	0.25090352
149	0x3e1c81bf	0.15283869
150	0x3eb80924	0.35944474
151	0x3e24770d	0.1606104
152	0xbdaddebf	-0.08489751
153	0xbe29fdd5	-0.16600735
154	0x3eb15fb6	0.34643334
155	0x3e420f37	0.18951117
156	0xbe570d8d	-0.21001263
157	0x3e817f6e	0.25292534
158	0x3ebf60ad	0.37378445
159	0x3d7c8096	0.061646067
160	0x3e6f3b12	0.23362377
161	0x3e22cd25	0.15898569
162	0xbdc1396c	-0.094347805
163	0xbc951cf0	-0.018202275
164	0xbeb85cbc	-0.3600825
165	0xbdf840be	-0.121217236
166	0xbe380ab0	-0.17972827
167	0x3e531883	0.20614819
168	0xbbf56948	-0.007489357
169	0x3e9fefa7	0.31237528
170	0x3c415fc4	0.011802617
171	0x3e5542dd	0.20826288
172	0xbd8ab627	-0.06773024
173	0x3e995711	0.2994924
174	0xbe1f6b7a	-0.15568343
175	0x3b5215dc	0.0032056486
176	0x3eca53da	0.395171
177	0xbdfc4691	-0.12318147
178	0x3e691173	0.22760563
179	0x3e75028d	0.23926754
180	0x3ef6f405	0.48233047
181	0xbdd224b2	-0.10260905
182	0xbd07587a	-0.033043362
183	0x3dad1328	0.084509194
184	0xbc3a9918	-0.011389039
185	0xbe84e62f	-0.25956866
186	0xbdb0ac19	-0.08626575
187	0xbda85e40	-0.08221102
188	0x3d3607e7	0.04444113
189	0xbdb1cff6	-0.086822435
190	0x3e85633f	0.2605228
191	0xbe30473c	-0.17214674
192	0x3d1062a2	0.035250314
193	0x3ea6905d	0.32532015
194	0xbba5258b	-0.005039876
195	0x3ec91aef	0.3927836
196	0xbe3b194e	-0.18271372
197	0x3ecb6809	0.3972781
198	0x3ea1528a	0.31508285
199	0x3ed685f0	0.4189906
200	0x3ea4144a	0.3204673
201	0xbd7bb670	-0.061453283
202	0x3e0e7bf0	0.13914466
203	0x3d734638	0.059393138
204	0x3ea3b73c	0.31975734
205	0x3ecc850f	0.39945266
206	0x3e552fd3	0.20819025
207	0xbe7f09ab	-0.24906032
208	0xbe019bf2	-0.12657145
209	0x3e6bdc06	0.23033151
210	0x3e81096e	0.25202507
211	0x3ea3a52f	0.31961963
212	0x3cbc0666	0.02295227
213	0xbd78ec88	-0.06077245
214	0x3eb7fce2	0.35935122
215	0x3ef39f04	0.47582257
216	0x3e923a58	0.28560138
217	0x3bbff119	0.0058575985
218	0x3db6bed8	0.08923119
219	0x3e5bee42	0.21477607
220	0x3eb60803	0.35552987
221	0xbd9bafc5	-0.07601885
222	0x3df67341	0.12033702
223	0x3e145e83	0.14489178
224	0x3e7aefea	0.24505582
225	0x3e835fa2	0.256589
226	0x3db39f41	0.0877061
227	0xbde774ba	-0.11301561
228	0x3e77b5fb	0.24190514
229	0x3e4cc880	0.1999836
230	0x3cc988ae	0.024601307
231	0xbeb1390e	-0.34613842
232	0x3cb38ef9	0.02191876
233	0xbe0578c9	-0.13034357
234	0x3e07553b	0.13216107
235	0xbd0e8801	-0.034797672
236	0x3e337e0d	0.17528553
237	0x3f101cdb	0.5629403
238	0x3e9ba574	0.30399668
239	0x3ea2b17d	0.31776038
240	0x3e98887f	0.29791638
241	0x3e823354	0.25429785
242	0x3e216e0e	0.15764639
243	0x3dfb5afb	0.122732125
244	0x3e248e55	0.1606992
245	0xbda324ce	-0.07966004
246	0xbde6b60e	-0.11265193
247	0x3e76a9e1	0.24088241
248	0x3e4fe8e5	0.20303686
249	0x3da00c7a	0.0781488
250	0x3ed0215b	0.40650448
251	0xbe333da7	-0.17503987
252	0xbdfc246b	-0.12311634
253	0x3e5011a7	0.20319234
254	0x3d0c2ece	0.034224324
255	0xbcca9823	-0.024730748

fc1.bias f4 [8]
0	0x3ebe4351	0.37160733
1	0x3f262f04	0.6491549
2	0x3efaa1af	0.4895148
3	0x3f178663	0.5918943
4	0x3ead5797	0.33855888
5	0x3e59543d	0.2122354
6	0x3ea7f8c3	0.32806978
7	0x3e9462bf	0.28981587

fc2.weight f4 [16, 8]
0	0x3ee3c3dc	0.44485366
1	0xbf5f3e6f	-0.8720464
2	0x3e3879f2	0.18015268
3	0xbdfe7616	-0.12424867
4	0x3f420bc4	0.757992
5	0x3ecc72c2	0.39931303
6	0x3ecc770d	0.3993458
7	0x3e8493c4	0.25893986
8	0xbec6d13b	-0.38831505
9	0x3f0a2c7d	0.53974134
10	0x3f0824c5	0.53181106
11	0x3da52c4c	0.080650896
12	0x3f54abef	0.8307485
13	0xbef8d20e	-0.4859776
14	0xbf38f7fe	-0.72253406
15	0x3eb12d94	0.34605086
16	0x3dcb0312	0.09912695
17	0x3f3ce3ce	0.737851
18	0x3e166aa7	0.14689122
19	0xbf0514d5	-0.5198491
20	0x3dda5d13	0.10662284
21	0x3eccf284	0.40028775
22	0xbefe9d52	-0.497294
23	0x3eeab9a2	0.45844752
24	0x3e591937	0.21201025
25	0xbe8bcbed	-0.2730402
26	0x3ea7d94f	0.3278298
27	0xbe21eef0	-0.15813804
28	0x3f2f57fb	0.6849362
29	0xbee48613	-0.4463354
30	0xbef11085	-0.47082916
31	0x3f610b47	0.8790783
32	0x3f5df3f6	0.8670038
33	0x3e3ac9fb	0.18241112
34	0xbe917b6a	-0.2841447
35	0x3f48f67b	0.785011
36	0x3d897a63	0.067127965
37	0x3f4746dc	0.778425
38	0x3f48e83e	0.78479373
39	0xbe13fab6	-0.14451107
40	0xbc7b9f8e	-0.015357865
41	0x3e9d70d0	0.30750132
42	0x3f76369f	0.96177095
43	0x3f1e94c4	0.6194575
44	0xbf019aed	-0.50627023
45	0xbf3c3125	-0.7351249
46	0x3ebe8e2b	0.3721784
47	0xbee0ef73	-0.43932685
48	0x3de1e917	0.110307865
49	0xbe2cd481	-0.16877939
50	0x3f405ec8	0.75144625
51	0x3f1300d8	0.5742316
52	0xbef11302	-0.47084814
53	0xbec6dbf0	-0.38839674
54	0x3f3990a3	0.72486323
55	0xbe02b43f	-0.12764071
56	0x3e6ef53e	0.2333574
57	0xbea3c2de	-0.3198461
58	0xbb398900	-0.0028310418
59	0x3d9e28e8	0.07722646
60	0xbe23c7be	-0.15994164
61	0xbdf32a86	-0.11873345
62	0xbdffe522	-0.124948755
63	0xbdbf3598	-0.09336394
64	0xbe9589ff	-0.29206845
65	0xbd3bc531	-0.045842353
66	0x3f657d0b	0.89643925
67	0xbe272657	-0.16323219
68	0xbe1d3546	-0.15352353
69	0xbe31a55e	-0.17348239
70	0xbdebffb5	-0.115233816
71	0x3f1641ed	0.58694345
72	0x3f4a6a3a	0.7906834
73	0xbe67502f	-0.22589181
74	0x3f05f6f0	0.5232992
75	0xbcf6c849	-0.0301248
76	0x3f2566db	0.6461007
77	0xbf100cc9	-0.5626951
78	0xbefe6f72	-0.496944
79	0xbeaef952	-0.3417459
80	0x3ddf6a60	0.10908961
81	0xbeafb608	-0.34318566
82	0x3f3065bc	0.68905234
83	0x3ea442b6	0.32082146
84	0x3eec38be	0.4613704
85	0xbe3f3de5	-0.18675955
86	0xbe9eac09	-0.30990627
87	0x3e6e15e3	0.23250537
88	0x3e351396	0.17683253
89	0xbf0617c6	-0.52380025
90	0x3e73f2ce	0.23823091
91	0x3d4da49b	0.050205808
92	0x3e70a6d7	0.23501144
93	0x3f734a31	0.9503508
94	0x3f673257	0.9031119
95	0x3f5a6e58	0.8532462
96	0x3d4c780d	0.049919177
97	0x3f737742	0.9510385
98	0x3da5ecb9	0.08101792
99	0x3f551b4d	0.8324478
100	0x3db404f0	0.08790004
101	0x3db4eeba	0.08834596
102	0xbedc32a0	-0.43007374
103	0xbe994cc7	-0.2994139
104	0x3f5c09b9	0.85952336
105	0x3e5a30ed	0.21307726
106	0xbf4965b8	-0.78670835
107	0x3f0479e2	0.5174848
108	0x3f6368b4	0.8883164
109	0x3f101573	0.5628273
110	0xbd7819ed	-0.0605716
111	0xbec35395	-0.38149706
112	0xbe20ec13	-0.15715055
113	0xbdbea45f	-0.09308695
114	0x3f35c18f	0.7099847
115	0x3f3199d9	0.6937538
116	0xbe9841f4	-0.29737818
117	0xbe91a42f	-0.28445575
118	0x3ee61ef3	0.44945487
119	0x3e71c115	0.23608811
120	0x3f430ef6	0.76194704
121	0xbe511e48	-0.20421708
122	0x3f4a5d80	0.7904892
123	0xbc99add6	-0.01875965
124	0x3e3dbbc9	0.18528666
125	0xbf3a4380	-0.72759247
126	0x3e663333	0.22480468
127	0xbe9a31b7	-0.30116054

fc2.bias f4 [16]
0	0x3cc8a0b7	0.024490697
1	0x3e8aec6d	0.27133504
2	0x3d36adb0	0.044599235
3	0x3ec66a6e	0.38753074
4	0x3ed00677	0.40629932
5	0x3ee2c25a	0.44288903
6	0x3e249934	0.16074067
7	0xbe2c0663	-0.16799311
8	0x3e79c42e	0.24391243
9	0xbc220194	-0.009888072
10	0xbe041292	-0.12897709
11	0x3de51626	0.11185865
12	0x3ee8096e	0.45319694
13	0x3eaafc1f	0.33395478
14	0xbe5b1dee	-0.21398136
15	0x3d9c43c3	0.07630112

fc3.weight f4 [9, 16]
0	0xbf3f60d0	-0.747571
1	0xbf8f2ffb	-1.1186517
2	0xbf51e684	-0.81992364
3	0xbf27f851	-0.65613276
4	0x3ed030bf	0.4066219
5	0x3edffb83	0.43746576
6	0x3e28fefd	0.1650352
7	0x3e04f0cc	0.12982482
8	0xbecd4b42	-0.4009648
9	0xbf5ac2d7	-0.8545355
10	0xbf796e0d	-0.9743355
11	0x3d21bcb1	0.03948659
12	0x3e2ca9df	0.16861676
13	0x3e3f14a2	0.18660215
14	0x3d70692f	0.05869406
15	0xbe23eb19	-0.16007651
16	0x3d7c34ce	0.061573796
17	0xbf2f389d	-0.6844576
18	0xbf78837f	-0.9707565
19	0xba131fc2	-0.0005612337
20	0x3e19fc7b	0.1503772
21	0x3d7712e5	0.060320754
22	0x3ee02263	0.43776235
23	0xbcb37690	-0.021907121
24	0x3e91da6a	0.2848695
25	0xbdd931e9	-0.10605223
26	0x3cc414be	0.023935672
27	0x3e84f5f7	0.25968906
28	0xbf71e81c	-0.94494796
29	0xbf1d367f	-0.6141128
30	0x3eebaf76	0.46032304
31	0x3ef1bc27	0.4721386
32	0xbefc76fa	-0.49309522
33	0x3ea5faf7	0.32418033
34	0xbe97e5d4	-0.29667532
35	0xbde5ab41	-0.11214305
36	0x3e2fca77	0.17167078
37	0x3e48bfb1	0.19604374
38	0xbf15c3c2	-0.5850183
39	0x3d967068	0.073456585
40	0xbeb08164	-0.34473717
41	0x3ee6ea74	0.4510075
42	0xbde89783	-0.113570236
43	0xbf49cfc1	-0.7883263
44	0x3e8a4f29	0.2701352
45	0x3e52b49e	0.20576712
46	0xbee6b9ff	-0.4506378
47	0x3e313f52	0.17309311
48	0xbe8ac968	-0.27106786
49	0x39f235a1	0.00046197794
50	0xbedb2c5e	-0.42807287
51	0xbf2e0f61	-0.67992216
52	0xbec9eda0	-0.39439106
53	0x3f14fbf5	0.58196956
54	0x3e804168	0.250499
55	0x3d7e0f30	0.062026203
56	0x3ead37af	0.33831546
57	0xbf298aba	-0.66227305
58	0xbecdfeed	-0.40233555
59	0xbead7db5	-0.3388497
60	0x3eb7617c	0.35816562
61	0xbf23b764	-0.63951707
62	0x3eab98e0	0.33515072
63	0x3cb6ff57	0.022338552
64	0xbdea5675	-0.114422716
65	0x3e744109	0.23852934
66	0xbee42a37	-0.44563457
67	0x3ec35ba5	0.38155857
68	0x3ccb7328	0.024835184
69	0xbd843086	-0.064545676
70	0xbec438a0	-0.3832445
71	0xbe13d02e	-0.14434883
72	0x3e49df57	0.19714104
73	0xbf498466	-0.7871765
74	0x3e2591b3	0.16168861
75	0x3e8c7365	0.2743179
76	0x3d0223ff	0.03177261
77	0xbe397420	-0.18110704
78	0x3e945ca2	0.28976923
79	0xbf8bebfd	-1.0931393
80	0xbe941e8c	-0.28929555
81	0xbf107017	-0.56421036
82	0x3e84ce72	0.25938755
83	0xbf3e17fb	-0.7425534
84	0x3ed8d780	0.42351913
85	0xbee18976	-0.44050187
86	0xbf841c42	-1.0321124
87	0x3c6ffda0	0.014647871
88	0xbe89aabb	-0.2688807
89	0xbf56767b	-0.83774537
90	0xbf662388	-0.89897966
91	0x3d506033	0.050872993
92	0x3ec7d8a7	0.3903248
93	0x3efd1861	0.49432662
94	0xbf65eb2f	-0.89811987
95	0xbf754070	-0.9580145
96	0xbf331635	-0.6995576
97	0x3f0fe76e	0.5621251
98	0x3f341ad1	0.7035342
99	0x3edb5643	0.4283925
100	0xbea6600d	-0.32495156
101	0xbe8e0843	-0.27740678
102	0xbf50280e	-0.8131112
103	0xbd8df9d0	-0.069324136
104	0x3ec38781	0.3818932
105	0xbf71a55d	-0.9439295
106	0xbeaf9d63	-0.34299764
107	0xbb4bcc61	-0.003109716
108	0x3dfd7385	0.12375549
109	0xbe43ccf9	-0.1912116
110	0xbf7ba933	-0.9830505
111	0xbf6d5600	-0.9270935
112	0x3e056245	0.13025768
113	0x3c9ad020	0.01889807
114	0xbe9ba947	-0.30402586
115	0x3eab53f5	0.33462492
116	0xbef8f691	-0.48625615
117	0xbf2fa772	-0.68614876
118	0xbef199cf	-0.4718766
119	0x3b732380	0.0037100017
120	0x3e86f226	0.2635662
121	0x3f18808a	0.59571135
122	0x3deccf9e	0.11563037
123	0x3e2513dd	0.16120858
124	0xbf1678bf	-0.58777994
125	0xbe91bffc	-0.28466785
126	0xbe64f9b6	-0.22360882
127	0x3ec0f810	0.37689257
128	0x3f16cb5f	0.5890407
129	0xbf361afc	-0.71134925
130	0xbeacb624	-0.33732712
131	0xbe11b2f1	-0.14228417
132	0x3e3c1745	0.18368252
133	0xbf14d968	-0.58144236
134	0xbec1545e	-0.3775968
135	0xbc20b500	-0.009808779
136	0xbed80053	-0.42187747
137	0xbe0fa18e	-0.14026472
138	0xbeb01eac	-0.343984
139	0x3eec72c8	0.4618132
140	0xbf6d06ee	-0.925887
141	0x3e8c6c5e	0.27426428
142	0xbf1177c3	-0.56823367
143	0xbf04b4de	-0.5183848

fc3.bias f4 [9]
0	0x3e4de363	0.20106272
1	0xbe4ef8e6	-0.20212135
2	0xbe173e00	-0.14769745
3	0x3df8db20	0.1215117
4	0xbb88baa2	-0.004172639
5	0x3daeb4c0	0.08530569
6	0x3e86690b	0.26252016
7	0xbeb94a53	-0.36189517
8	0x3d9108db	0.07081767
