data.pth (torch, 6591 bytes, 6 tensors)

l1.weight f4 [8, 72]
0.04686676 0.06535192 0.03914917 -0.108643346 -0.0449884 0.21494435 0.57785666 -0.015886838
-0.70328444 -0.72662073 -0.726677 0.9146322 0.85898995 0.5916375 0.4824704 -0.7266381
-0.7266306 -0.5942105 0.5496044 0.9419865 -0.13590142 -0.6702419 -0.72670215 -0.63957506
-0.61653674 -0.6510576 -0.62832105 -0.041781273 -0.074062794 -0.5872864 0.95588094 0.9791607
-0.006406473 -0.019239932 -0.6081504 -0.5615067 -0.7266529 -0.6370979 -0.7266744 -0.51861334
-0.6125059 0.12288317 0.34425902 -0.5873761 -0.6603164 0.82562697 -0.0263278 0.6402394
0.62678444 0.04592902 0.51542145 -0.72631145 -0.033257153 0.5801629 0.566632 0.6339017
-0.7266748 -0.060565393 -0.01217633 -0.10099775 -0.025099458 -0.075821646 0.0432326 0.96032345
-0.7107964 0.44262838 0.5814232 -0.72659636 0.45749736 0.55853945 0.5490281 0.5334492
0.26961574 0.44092214 0.2989541 0.6074113 0.40987575 -0.05486217 -0.07003357 0.64671916
0.7573282 -0.50668776 -0.49771237 -0.5747051 -0.63390315 -0.04844633 -0.14392391 -0.50679696
0.70826477 0.856963 -0.101834916 -0.53701174 0.51803666 0.6951024 -0.5193622 0.81573075
0.7368587 0.647485 0.7066982 0.7240338 0.9551323 -0.53278553 -0.6154799 -0.5694301
0.48426026 0.3704307 -0.5331205 -0.54087305 -0.50626767 -0.49334285 -0.52713287 -0.5204592
0.76639193 -0.38901958 0.5198031 -0.5316231 -0.5152013 -0.64477235 0.37689844 -0.1112021
-0.10903833 0.44885802 -0.09946398 0.7624003 0.9475203 -0.04746828 -0.03165533 -0.051048473
-0.5342124 -0.6449424 -0.6449222 0.3299976 -0.64491713 -0.6449213 -0.2558648 -0.6172882
0.67571473 0.55452996 0.74226254 -0.51294005 0.74448246 0.6867728 0.7570909 0.76211816
-0.15165913 -0.20634158 -0.22445913 -0.34126726 -0.22700524 0.2614856 -0.39860559 -0.3164352
0.3870949 0.8326091 0.8338352 0.0026284752 0.038278375 -0.3498465 -0.40648013 0.6968813
0.3512547 0.38379973 -0.35230103 0.032914795 -0.3440062 0.4435162 0.8776295 0.39671382
0.4905584 0.5973373 0.5174304 -0.5687045 -0.6779985 -0.5930047 0.12437223 0.09649599
-0.27419648 -0.18638317 -0.56556153 -0.53538424 0.72733134 -0.6167475 0.89763576 -0.59835714
0.495157 0.42750475 0.46850437 -0.5532795 -0.5978821 0.076963805 0.5103671 -0.24975985
-0.26806194 -0.27022067 -0.3862522 0.39267808 -0.66221 -0.33894148 -0.339883 -0.35499123
0.8776172 0.5062707 0.41266713 -0.31597403 0.4397508 0.39482486 0.3387617 0.19270931
0.3267369 0.5557208 0.55006945 0.7884887 0.5122302 0.56915313 0.5997962 0.50983924
-0.26184615 -0.1261022 -0.21579294 -0.3580388 -0.2193078 0.40437594 -0.37477824 -0.38805726
-0.12633392 0.6446945 0.6284168 0.45775643 0.38899744 -0.43988308 -0.46493044 0.7215967
-0.24607481 0.35118118 -0.46594086 0.47932974 -0.37103197 0.3437982 0.6025266 0.44196615
0.26950693 0.17436339 0.3322565 -0.43390363 -0.60191166 0.62251353 0.370333 0.4448243
-0.19048382 -0.13552146 0.7381276 0.7220843 0.7044198 0.7517472 0.5247724 0.591367
00000000: 5cf7 3f3d 3ad7 853d e15a 203d 6780 debd
00000010: c245 38bd 5f1a 5c3e 6aee 133f 1d25 82bc
00000020: 730a 34bf d103 3abf 8107 3abf 5625 6a3f
00000030: c4e6 5b3f 8e75 173f 5c06 f73e f404 3abf
00000040: 7704 3abf 2e1e 18bf e0b2 0c3f 0726 713f
00000050: be29 0bbe f994 2bbf 2709 3abf 31bb 23bf
00000060: 5ad5 1dbf b6ab 26bf a6d9 20bf d722 2bbd
00000070: 3cae 97bd 6758 16bf 9db4 743f 47aa 7a3f
00000080: 64ed d1bb 109d 9dbc bfaf 1bbf e7be 0fbf
00000090: ed05 3abf d918 23bf 5507 3abf d8c3 04bf
000000a0: 30cd 1cbf 2caa fb3d b842 b03e 485e 16bf
000000b0: 7f0a 29bf 4a5c 533f 66ad d7bc bbe6 233f
000000c0: f274 203f 1120 3c3d a9f2 033f 8cef 39bf
000000d0: a738 08bd 8e85 143f cb0e 113f 6247 223f
000000e0: 5c07 3abf 6b13 78bd 3b7f 47bc e9d7 cebd
000000f0: 619d cdbc 6148 9bbd ab14 313d c2d7 753f
00000100: c1f6 35bf 30a0 e23e 27d8 143f 3802 3abf
00000110: 183d ea3e 71fc 0e3f 1b8d 0c3f 2090 083f
00000120: 130b 8a3e 8cc0 e13e 8310 993e 4f7f 1b3f
00000130: 3cdb d13e 28b7 60bd c36d 8fbd 638f 253f
00000140: 43e0 413f 4ab6 01bf 28d4 febe e01f 13bf
00000150: 7a47 22bf a96f 46bd ca60 13be 72bd 01bf
00000160: d750 353f ed61 5b3f d38e d0bd 9a79 09bf
00000170: 0d9e 043f 3bf2 313f ecf4 04bf bbd3 503f
00000180: c6a2 3c3f 94c1 253f 2cea 343f 475a 393f
00000190: 8d83 743f a264 08bf 1790 1dbf 2cc6 11bf
000001a0: f6f0 f73e 18a9 bd3e 967a 08bf a876 0abf
000001b0: c29a 01bf 6f97 fcbe 2ef2 06bf d03c 05bf
000001c0: 4332 443f 932d c7be d111 053f 7418 08bf
000001d0: 3be4 03bf cd0f 25bf d5f8 c03e edbd e3bd
000001e0: 7d4f dfbd b8d0 e53e c5b3 cbbd ab2c 433f
000001f0: b190 723f 196e 42bd 05a9 01bd 3418 51bd
00000200: 25c2 08bf f21a 25bf 9f19 25bf 72f5 a83e
00000210: 4a19 25bf 9019 25bf b600 83be 9906 1ebf
00000220: a4fb 2c3f adf5 0d3f eb04 3e3f 0a50 03bf
00000230: 6796 3e3f 58d0 2f3f b6d0 413f 2d1a 433f
00000240: 884c 1bbe 354b 53be 9dd8 65be 95ba aebe
00000250: 1074 68be 71e1 853e 0816 ccbe cb03 a2be
00000260: 4d31 c63e df25 553f 3976 553f 7f42 2c3b
00000270: c9c9 1c3d 151f b3be 2a1e d0be d066 323f
00000280: a8d7 b33e 6681 c43e cd60 b4be aad1 063d
00000290: 9521 b0be 8e14 e33e 54ac 603f 131e cb3e
000002a0: 782a fb3e 19eb 183f 5276 043f 9e96 11bf
000002b0: 4f91 2dbf 28cf 17bf deb6 fe3d b19f c53d
000002c0: 7b63 8cbe 3bdb 3ebe a4c8 10bf f10e 09bf
000002d0: 6332 3a3f 2ae3 1dbf 75cb 653f ef2d 19bf
000002e0: 3885 fd3e e7e1 da3e cedf ef3e baa3 0dbf
000002f0: cd0e 19bf 339f 9d3d 6ba7 023f 0cc1 7fbe
00000300: 6a3f 89be 5d5a 8abe d9c2 c5be 1a0d c93e
00000310: 9886 29bf bd89 adbe 2505 aebe 69c1 b5be
00000320: 85ab 603f f59a 013f 1b49 d33e 59c7 a1be
00000330: 0427 e13e 7c26 ca3e 2c72 ad3e 9755 453e
00000340: 0f4a a73e b843 0e3f 5ad1 0c3f 65da 493f
00000350: 8521 033f 05b4 113f 3e8c 193f d384 023f
00000360: b310 86be ef20 01be d3f8 5cbe dd50 b7be
00000370: 3992 60be 5d0a cf3e efe2 bfbe 71af c6be
00000380: ae5d 01be b30a 253f ecdf 203f 0d5f ea3e
00000390: ac2a c73e 5b38 e1be 5d0b eebe 90ba 383f
000003a0: 09fb 7bbe 05ce b33e cd8f eebe b56a f53e
000003b0: e7f7 bdbe 5106 b03e 2f3f 1a3f 6349 e23e
000003c0: d0fc 893e 518c 323e 861d aa3e 9e28 debe
000003d0: e216 1abf 0c5d 1f3f 499c bd3e 03c0 e33e
000003e0: 310e 43be 23c6 0abe eef5 3c3f 84da 383f
000003f0: db54 343f 8172 403f 7c57 063f d463 173f

l1.bias f4 [8]
0.7266442 0.64489883 0.9500802 0.8105939 0.56229776 0.66269 0.50468117 0.6784945
00000000: 5b05 3a3f 1718 253f 7538 733f 1583 4f3f
00000010: bff2 0f3f 0da6 293f c932 013f d1b1 2d3f

l2.weight f4 [8, 8]
-2.2106628 -0.2702823 1.5944781 1.3058553 0.32671338 1.4134612 0.49344426 0.28118122
0.12543985 2.0759683 0.97249883 -1.009742 0.69692034 -0.34878126 1.6103797 0.7817104
1.2982266 1.0844127 1.7484891 1.4452931 -1.4575948 -0.6582595 -1.0286872 -1.01997
-0.33861205 1.6074464 -0.3418985 0.17235847 -0.3898751 1.2473335 0.9370532 0.13694061
0.93563336 0.22445364 -0.70196885 -0.6258932 1.3919816 -0.3713564 1.8130882 1.9645513
-1.4726204 -0.6009766 0.87848896 1.8733661 0.268092 1.6557175 0.081994355 -0.40393156
1.3745908 -1.2603227 1.484699 0.7895676 -0.39821416 -1.4398438 -0.7864272 1.3244307
1.3815094 -1.4973794 -0.06337008 1.0263884 1.0773275 1.2451303 -0.08879447 0.74287456
00000000: 807b 0dc0 7162 8abe dc17 cc3f 4426 a73f
00000010: fa46 a73e 4cec b43f baa4 fc3e fcf6 8f3e
00000020: 4e73 003e aadc 0440 aff5 783f 3a3f 81bf
00000030: 5f69 323f 7593 b2be ec20 ce3f 2c1e 483f
00000040: 4a2c a63f 09ce 8a3f 7ece df3f 5dff b83f
00000050: 7792 babf b283 28bf 06ac 83bf 618e 82bf
00000060: 8f5e adbe cec0 cd3f 520d afbe bd7e 303e
00000070: b69d c7be a0a8 9f3f b8e2 6f3f 293a 0c3e
00000080: ab85 6f3f 2dd7 653e 3bb4 33bf 893a 20bf
00000090: 742c b23f 6d22 bebe 4613 e83f 6b76 fb3f
000000a0: d37e bcbf 9ad9 19bf a7e4 603f 76ca ef3f
000000b0: 5b43 893e 8dee d33f a8ec a73d 1ed0 cebe
000000c0: 97f2 af3f 4152 a1bf 9e0a be3f 1a21 4a3f
000000d0: bae2 cbbe cd4c b8bf 4b53 49bf f286 a93f
000000e0: 4dd5 b03f 21aa bfbf 2cc8 81bd b260 833f
000000f0: dee5 893f 6e60 9f3f e0d9 b5bd 072d 3e3f

l2.bias f4 [8]
0.1437317 0.72807544 0.6675158 -0.041443825 0.45865187 0.853855 0.5924833 0.3098037
00000000: 672e 133e 2763 3a3f 51e2 2a3f 00c1 29bd
00000010: 6bd4 ea3e 3e96 5a3f fcac 173f 979e 9e3e

l3.weight f4 [9, 8]
-1.2563121 0.6442742 1.0206716 0.16315334 -1.1527172 -0.65449005 0.22289056 -1.0039356
-0.9116332 0.59835607 -0.4138215 0.8912635 0.6689284 -1.426917 -1.0127497 -1.984488
-1.2010738 -1.1316068 0.61071104 -1.2523512 -0.18379816 -0.13184202 1.0409225 0.7264459
0.6993339 0.43573934 -1.5656527 0.33488157 0.040509503 -0.13559356 -1.1657431 -0.69865507
0.28456667 0.2015317 0.509071 0.780889 -1.4835832 0.5083283 -1.2354599 -1.1144413
0.6392981 -0.7050386 0.5230333 -1.9405868 -1.2190635 0.6974298 0.67100537 -0.6310954
0.37124544 -1.7403241 -0.19063786 -0.028217131 -1.347354 1.0934874 -1.369939 0.89114225
-1.3508695 0.4385733 -1.2109046 -1.0017234 0.53426445 -1.1638565 0.2110997 0.7812466
0.6356647 -0.7208921 -1.0689309 -1.0438486 0.1109174 0.026225194 0.08317926 0.8322736
00000000: d6ce a0bf 27ef 243f 5ea5 823f ab11 273e
00000010: 3d8c 93bf a98c 27bf 6c3d 643e f680 80bf
00000020: cb60 69bf dd2d 193f 69e0 d3be d829 643f
00000030: e43e 2b3f 37a5 b6bf c8a1 81bf b403 febf
00000040: c9bc 99bf 7ed8 90bf 8f57 1c3f 0b4d a0bf
00000050: 9635 3cbe 9801 07be f33c 853f 5cf8 393f
00000060: 8c07 333f 3a19 df3e 4f67 c8bf 9975 ab3e
00000070: 4bed 253d 0ad9 0abe 1237 95bf 0fdb 32bf
00000080: b9b2 913e 535e 4e3e 7a52 023f 57e8 473f
00000090: 0ee6 bdbf ce21 023f 8d23 9ebf 03a6 8ebf
000000a0: 0aa9 233f 697d 34bf 83e5 053f 2665 f8bf
000000b0: 460a 9cbf c28a 323f 02c7 2b3f 788f 21bf
000000c0: e213 be3e f1c2 debf 9236 43be 9d27 e7bc
000000d0: 1976 acbf 65f7 8b3f 295a afbf e621 643f
000000e0: 4be9 acbf ae8c e03e ecfe 9abf 7938 80bf
000000f0: 8ec5 083f 40f9 94bf 852a 583e c7ff 473f
00000100: ecba 223f 628c 38bf bad2 88bf d59c 85bf
00000110: a928 e33d 38d6 d63c e359 aa3d e20f 553f

l3.bias f4 [9]
0.31367517 0.3997541 -0.36483377 -0.29511088 -0.3487333 -0.04974765 0.297287 0.40632734
-0.31065643
00000000: 089a a03e 92ac cc3e 7ecb babe c618 97be
00000010: 2c8d b2be 31c4 4bbd 0036 983e 230a d03e
00000020: 5c0e 9fbe
